…
2025-11-03 19:34:46 - utils - INFO - Training deep clustering model...
2025-11-03 19:34:46 - utils - INFO - Initializing cluster centers with k-means...
2025-11-03 19:34:46 - utils - INFO - Building encoder network...
2025-11-03 19:34:46 - utils - INFO - Encoder architecture:
2025-11-03 19:34:46 - utils - INFO - Model: "Encoder"
┏━━━━━━━━━━━━━━━━━━━━━━━━━━━━━━━━━━━━━━┳━━━━━━━━━━━━━━━━━━━━━━━━━━━━━┳━━━━━━━━━━━━━━━━━┓
┃ Layer (type)                         ┃ Output Shape                ┃         Param # ┃
┡━━━━━━━━━━━━━━━━━━━━━━━━━━━━━━━━━━━━━━╇━━━━━━━━━━━━━━━━━━━━━━━━━━━━━╇━━━━━━━━━━━━━━━━━┩
│ input_layer (InputLayer)             │ (None, 84)                  │               0 │
├──────────────────────────────────────┼─────────────────────────────┼─────────────────┤
│ encoder_dense_0 (Dense)              │ (None, 128)                 │          10,880 │
├──────────────────────────────────────┼─────────────────────────────┼─────────────────┤
│ dropout (Dropout)                    │ (None, 128)                 │               0 │
├──────────────────────────────────────┼─────────────────────────────┼─────────────────┤
│ encoder_dense_1 (Dense)              │ (None, 64)                  │           8,256 │
├──────────────────────────────────────┼─────────────────────────────┼─────────────────┤
│ dropout_1 (Dropout)                  │ (None, 64)                  │               0 │
├──────────────────────────────────────┼─────────────────────────────┼─────────────────┤
│ encoder_dense_2 (Dense)              │ (None, 32)                  │           2,080 │
├──────────────────────────────────────┼─────────────────────────────┼─────────────────┤
│ dropout_2 (Dropout)                  │ (None, 32)                  │               0 │
├──────────────────────────────────────┼─────────────────────────────┼─────────────────┤
│ encoding (Dense)                     │ (None, 32)                  │           1,056 │
├──────────────────────────────────────┼─────────────────────────────┼─────────────────┤
│ l2_normalize (Lambda)                │ (None, 32)                  │               0 │
└──────────────────────────────────────┴─────────────────────────────┴─────────────────┘
 Total params: 22,272 (87.00 KB)
 Trainable params: 22,272 (87.00 KB)
 Non-trainable params: 0 (0.00 B)

2025-11-03 19:34:50 - utils - INFO - Initialized 5 cluster centers
2025-11-03 19:34:50 - utils - INFO - Building deep clustering model...
2025-11-03 19:34:50 - utils - INFO - Deep clustering model built
2025-11-03 19:34:50 - utils - INFO - Compiling deep clustering model...
…
2025-11-03 20:58:07 - utils - INFO - Initialized LSTM Autoencoder for sequences of shape (30, 27)
2025-11-03 20:58:07 - utils - INFO - Training LSTM Autoencoder...
2025-11-03 20:58:07 - utils - INFO - Building LSTM Autoencoder model...
2025-11-03 20:58:08 - utils - INFO - Model architecture:
2025-11-03 20:58:08 - utils - INFO - Model: "LSTM_Autoencoder"
┏━━━━━━━━━━━━━━━━━━━━━━━━━━━━━━━━━━━━━━┳━━━━━━━━━━━━━━━━━━━━━━━━━━━━━┳━━━━━━━━━━━━━━━━━┓
┃ Layer (type)                         ┃ Output Shape                ┃         Param # ┃
┡━━━━━━━━━━━━━━━━━━━━━━━━━━━━━━━━━━━━━━╇━━━━━━━━━━━━━━━━━━━━━━━━━━━━━╇━━━━━━━━━━━━━━━━━┩
│ input_layer (InputLayer)             │ (None, 30, 27)              │               0 │
├──────────────────────────────────────┼─────────────────────────────┼─────────────────┤
│ encoder_lstm_0 (LSTM)                │ (None, 30, 64)              │          23,552 │
├──────────────────────────────────────┼─────────────────────────────┼─────────────────┤
│ dropout (Dropout)                    │ (None, 30, 64)              │               0 │
├──────────────────────────────────────┼─────────────────────────────┼─────────────────┤
│ encoder_lstm_1 (LSTM)                │ (None, 32)                  │          12,416 │
├──────────────────────────────────────┼─────────────────────────────┼─────────────────┤
│ dropout_1 (Dropout)                  │ (None, 32)                  │               0 │
├──────────────────────────────────────┼─────────────────────────────┼─────────────────┤
│ encoding (Dense)                     │ (None, 32)                  │           1,056 │
├──────────────────────────────────────┼─────────────────────────────┼─────────────────┤
│ repeat_vector (RepeatVector)         │ (None, 30, 32)              │               0 │
├──────────────────────────────────────┼─────────────────────────────┼─────────────────┤
│ decoder_lstm_0 (LSTM)                │ (None, 30, 32)              │           8,320 │
├──────────────────────────────────────┼─────────────────────────────┼─────────────────┤
│ dropout_2 (Dropout)                  │ (None, 30, 32)              │               0 │
├──────────────────────────────────────┼─────────────────────────────┼─────────────────┤
│ decoder_lstm_1 (LSTM)                │ (None, 30, 64)              │          24,832 │
├──────────────────────────────────────┼─────────────────────────────┼─────────────────┤
│ dropout_3 (Dropout)                  │ (None, 30, 64)              │               0 │
├──────────────────────────────────────┼─────────────────────────────┼─────────────────┤
│ output (TimeDistributed)             │ (None, 30, 27)              │           1,755 │
└──────────────────────────────────────┴─────────────────────────────┴─────────────────┘
 Total params: 71,931 (280.98 KB)
 Trainable params: 71,931 (280.98 KB)
 Non-trainable params: 0 (0.00 B)

2025-11-03 21:13:14 - absl - WARNING - You are saving your model as an HDF5 file via `model.save()` or `keras.saving.save_model(model)`. This file format is considered legacy. We recommend using instead the native Keras format, e.g. `model.save('my_model.keras')` or `keras.saving.save_model(model, 'my_model.keras')`. 
…
2025-11-04 14:13:48 - utils - INFO - Training deep clustering model...
2025-11-04 14:13:48 - utils - INFO - Initializing cluster centers with k-means...
2025-11-04 14:13:48 - utils - INFO - Building encoder network...
2025-11-04 14:13:48 - utils - INFO - Encoder architecture:
2025-11-04 14:13:48 - utils - INFO - Model: "Encoder"
┏━━━━━━━━━━━━━━━━━━━━━━━━━━━━━━━━━━━━━━┳━━━━━━━━━━━━━━━━━━━━━━━━━━━━━┳━━━━━━━━━━━━━━━━━┓
┃ Layer (type)                         ┃ Output Shape                ┃         Param # ┃
┡━━━━━━━━━━━━━━━━━━━━━━━━━━━━━━━━━━━━━━╇━━━━━━━━━━━━━━━━━━━━━━━━━━━━━╇━━━━━━━━━━━━━━━━━┩
│ input_layer (InputLayer)             │ (None, 84)                  │               0 │
├──────────────────────────────────────┼─────────────────────────────┼─────────────────┤
│ encoder_dense_0 (Dense)              │ (None, 64)                  │           5,440 │
├──────────────────────────────────────┼─────────────────────────────┼─────────────────┤
│ dropout (Dropout)                    │ (None, 64)                  │               0 │
├──────────────────────────────────────┼─────────────────────────────┼─────────────────┤
│ encoder_dense_1 (Dense)              │ (None, 32)                  │           2,080 │
├──────────────────────────────────────┼─────────────────────────────┼─────────────────┤
│ dropout_1 (Dropout)                  │ (None, 32)                  │               0 │
├──────────────────────────────────────┼─────────────────────────────┼─────────────────┤
│ encoding (Dense)                     │ (None, 32)                  │           1,056 │
├──────────────────────────────────────┼─────────────────────────────┼─────────────────┤
│ l2_normalize (Lambda)                │ (None, 32)                  │               0 │
└──────────────────────────────────────┴─────────────────────────────┴─────────────────┘
 Total params: 8,576 (33.50 KB)
 Trainable params: 8,576 (33.50 KB)
 Non-trainable params: 0 (0.00 B)

2025-11-04 14:13:52 - utils - INFO - Initialized 5 cluster centers
2025-11-04 14:13:52 - utils - INFO - Building deep clustering model...
2025-11-04 14:13:52 - utils - INFO - Deep clustering model built
2025-11-04 14:13:52 - utils - INFO - Compiling deep clustering model...
…
                           LSTM AUTOENCODER TRAINING                            
================================================================================

2025-12-09 23:40:45 - utils - INFO - Loaded sequences: (2858935, 15, 13)
2025-12-09 23:40:48 - utils - INFO - Training on 2001254 normal sequences
2025-12-09 23:40:48 - utils - INFO - Model: "functional"
┏━━━━━━━━━━━━━━━━━━━━━━━━━━━━━━━━━━━━━━┳━━━━━━━━━━━━━━━━━━━━━━━━━━━━━┳━━━━━━━━━━━━━━━━━┓
┃ Layer (type)                         ┃ Output Shape                ┃         Param # ┃
┡━━━━━━━━━━━━━━━━━━━━━━━━━━━━━━━━━━━━━━╇━━━━━━━━━━━━━━━━━━━━━━━━━━━━━╇━━━━━━━━━━━━━━━━━┩
│ input_layer (InputLayer)             │ (None, 15, 13)              │               0 │
├──────────────────────────────────────┼─────────────────────────────┼─────────────────┤
│ lstm (LSTM)                          │ (None, 15, 32)              │           5,888 │
├──────────────────────────────────────┼─────────────────────────────┼─────────────────┤
│ dropout (Dropout)                    │ (None, 15, 32)              │               0 │
├──────────────────────────────────────┼─────────────────────────────┼─────────────────┤
│ lstm_1 (LSTM)                        │ (None, 16)                  │           3,136 │
├──────────────────────────────────────┼─────────────────────────────┼─────────────────┤
│ repeat_vector (RepeatVector)         │ (None, 15, 16)              │               0 │
├──────────────────────────────────────┼─────────────────────────────┼─────────────────┤
│ lstm_2 (LSTM)                        │ (None, 15, 16)              │           2,112 │
├──────────────────────────────────────┼─────────────────────────────┼─────────────────┤
│ dropout_1 (Dropout)                  │ (None, 15, 16)              │               0 │
├──────────────────────────────────────┼─────────────────────────────┼─────────────────┤
│ lstm_3 (LSTM)                        │ (None, 15, 32)              │           6,272 │
├──────────────────────────────────────┼─────────────────────────────┼─────────────────┤
│ time_distributed (TimeDistributed)   │ (None, 15, 13)              │             429 │
└──────────────────────────────────────┴─────────────────────────────┴─────────────────┘
 Total params: 17,837 (69.68 KB)
 Trainable params: 17,837 (69.68 KB)
 Non-trainable params: 0 (0.00 B)

2025-12-09 23:59:48 - utils - INFO - Utility functions loaded successfully
2025-12-09 23:59:52 - utils - INFO - ================================================================================
2025-12-09 23:59:52 - utils - INFO - INSIDER THREAT DETECTION SYSTEM
…
================================================================================

2025-12-13 01:39:33 - utils - WARNING - DEBUG MODE: Slicing data from 320915 to 5000 samples.
2025-12-13 01:39:33 - utils - INFO - Loaded sequences: (5000, 15, 13)
2025-12-13 01:39:33 - utils - INFO - Training on 3499 normal sequences
2025-12-13 01:39:33 - utils - INFO - Model: "functional"
┏━━━━━━━━━━━━━━━━━━━━━━━━━━━━━━━━━┳━━━━━━━━━━━━━━━━━━━━━━━━┳━━━━━━━━━━━━━━━┓
┃ Layer (type)                    ┃ Output Shape           ┃       Param # ┃
┡━━━━━━━━━━━━━━━━━━━━━━━━━━━━━━━━━╇━━━━━━━━━━━━━━━━━━━━━━━━╇━━━━━━━━━━━━━━━┩
│ input_layer (InputLayer)        │ (None, 15, 13)         │             0 │
├─────────────────────────────────┼────────────────────────┼───────────────┤
│ lstm (LSTM)                     │ (None, 15, 32)         │         5,888 │
├─────────────────────────────────┼────────────────────────┼───────────────┤
│ dropout (Dropout)               │ (None, 15, 32)         │             0 │
├─────────────────────────────────┼────────────────────────┼───────────────┤
│ lstm_1 (LSTM)                   │ (None, 16)             │         3,136 │
├─────────────────────────────────┼────────────────────────┼───────────────┤
│ repeat_vector (RepeatVector)    │ (None, 15, 16)         │             0 │
├─────────────────────────────────┼────────────────────────┼───────────────┤
│ lstm_2 (LSTM)                   │ (None, 15, 16)         │         2,112 │
├─────────────────────────────────┼────────────────────────┼───────────────┤
│ dropout_1 (Dropout)             │ (None, 15, 16)         │             0 │
├─────────────────────────────────┼────────────────────────┼───────────────┤
│ lstm_3 (LSTM)                   │ (None, 15, 32)         │         6,272 │
├─────────────────────────────────┼────────────────────────┼───────────────┤
│ time_distributed                │ (None, 15, 13)         │           429 │
│ (TimeDistributed)               │                        │               │
└─────────────────────────────────┴────────────────────────┴───────────────┘
 Total params: 17,837 (69.68 KB)
 Trainable params: 17,837 (69.68 KB)
 Non-trainable params: 0 (0.00 B)

2025-12-13 01:39:33 - utils - INFO - Starting training for 1 epoch(s)...
2025-12-13 01:42:20 - utils - INFO - Utility functions loaded successfully
…
